PtDeepLearningBootcamp/S6_Custom_Datasets/model_0.pth (torch, 46648 bytes, 10 tensors)

conv_block_1.0.weight f4 [10, 3, 3, 3]
00000000: 2407 a33d fc09 a43d 7996 02be 5f47 ea3d
00000010: 5cf2 edbd 355d 2ebd 53d6 27be f002 043d
00000020: 112a b23d 24e9 4abe 9afb c73d 9d17 fdbc
00000030: 4b5b ba3d 4211 1fbd 616f e53c 8d10 abbd
00000040: 2382 a13d ca94 1bbd 5b97 08be 15b4 a53b
00000050: bb7a 08be 0961 7ebd 1c63 f8bd e602 a73d
00000060: 2f37 4abe c5a3 0dbe 842e dbbd 0508 03be
00000070: 44c0 d63b bf4b 4bbe beec 0d3e db52 4cbe
00000080: 4a8a e33d 30ce f13a fd2d bebd af89 b23d
00000090: ac65 7b3c 3830 103e ad20 203c 588d c8bd
000000a0: 39f4 563c 4400 bcbd 9ed8 513d a977 103e
000000b0: 2886 a13d a3c9 c9bd 0633 bf3d 9dc1 9f3c
000000c0: fd72 6c3d d51f 24be 5538 6fbe 58c8 d1bd
000000d0: 3102 37be e634 003e f840 3d3c 8b14 363d
000000e0: 09da d23c 5d80 36bd 8d8d e13d 7bd8 38be
000000f0: 9c57 07bd f9e5 33be 4e0a 923c 843c fcbd
00000100: 197f 7e3c 6b7f 98bd 5785 cf3d 8647 2ebe
00000110: ab01 2abe b87b 34be 4e8f f03d f86a aa3c
00000120: f2e4 f83d 0663 4abe 760b 5cbe c737 5cbe
00000130: 25b9 31be 13f8 3b3d 41aa 46bc ee76 d23d
00000140: e825 09be 48cc ffbd 11f0 073e 8c38 5ebd
00000150: 7484 a73d 2cb5 69bd bbed ba3d 5887 5ebe
00000160: 2a0e 13be 4efd 2c3c 1237 6b3d be54 d6bb
00000170: b4cc 223e f64f eb3d 5925 00be 3354 b5bd
00000180: b48c 133e 024b 8bbd e0c1 86bd 6eab 12be
00000190: 181e 15bd e7ca f63d 0449 b3bc 6176 bdbd
000001a0: 27a3 513d 6803 0ebe 032c edbd 5f63 6bbd
000001b0: a6ed f1bd 64d3 7ebd c1bd 6d3e 698e 373d
000001c0: b46a 983d c579 3ebe 7de3 0abe 86f1 89bd
000001d0: 8793 703c 7c8b 01be 3380 ccbc 1fdb 91bd
000001e0: 5f6c fa39 de43 81bd 4922 a1bc c9c0 1cbe
000001f0: 0a61 13be 99e2 fabd a7ff 23bd 8a7b dfbd
00000200: b5bd 413e 253d c6bc fcf5 423e 5a57 943d
00000210: 938d 16be 4e3b 2a3e fb9e 83bc 2f7d 9b3d
00000220: 0dad 0ebd 803b a1bd a1c8 7e3e 2d72 fc3d
00000230: edee 5f3e e1fe 9b3c 4536 953e 30fd 85bc
00000240: 8191 c73d 8161 173e ae66 323e e366 a13e
00000250: 7a55 9d3e ba9f 89bd 6aa1 353e c018 823c
00000260: 0c26 f63c c001 b5bc e202 8b3e 6ebd b0bd
00000270: 9bbd 783e 9230 363e 1970 eb3d 8d3b d339
00000280: 21bf 793e 58ea 523d f2a7 7e3c 9305 3dbe
00000290: a715 973d 2707 16bd ea48 d2bd a846 223e
000002a0: 3a52 163d fac3 e7bd 0d7d c7bd bbcd 8ebc
000002b0: 863c c73d 6cff 62bd 6a50 f1bd bb01 9bbd
000002c0: 8d6f 19be 7c18 793d 08b5 103e 5387 39be
000002d0: a420 0e3d 2c82 b33d 9444 ed3c 9186 a0bd
000002e0: 7c42 b63d 080c c33d be54 7e3d 136e 31bd
000002f0: 84bc 50bd 4ffa 05bc 98c6 68bd fc2e 06be
00000300: 2ec7 073e 95d3 3c3e 0876 34bd 0bcb 79bd
00000310: 6c4c e3bb dc8a 99bd 0e4d c9bb 0e8f 803c
00000320: 91ff 84be b480 bbbd 7de3 213e 862e 0e3d
00000330: 9bcf 1cbd afb0 fdbd bd3c 3abe 81ab 59be
00000340: c3f0 b0bd 3e37 383c b2da ea3d 1074 c33d
00000350: 330e 44be 9794 05be 1020 81bc 00cc 2a3e
00000360: f818 03bc 0496 a9bd a873 293d c68f c5bd
00000370: be14 17be 0401 ef3d 068e cfbd d0cf 6dbd
00000380: 19c2 55be 5487 b03d 2a75 da3d 3fbb d63c
00000390: 155e 30be 6a8e 62be bdbd 42be c986 ea3d
000003a0: 1ad9 7c3d 547d 0a3e 8303 523d 938e c73b
000003b0: b026 1fbd 49b9 3ebe e848 41be 2251 4dbe
000003c0: 6623 003d 7f37 05be a285 7bbd b7d2 eebd
000003d0: 1e59 22bd 37b4 0abe df8f 12be d15a 493d
000003e0: cc45 6abd ad41 d73d e962 98bd 3390 10be
000003f0: fd0c 31bd b33a ccbd 902a 71bd 83d4 4cbe
0.07960346 0.08009717 -0.12752713 0.11439394 -0.11618492 -0.042569358 -0.16390352 0.032229364
0.0869943 -0.19815499 0.09764786 -0.030895049 0.09099444 -0.038834818 0.028007211 -0.08352766
0.0788615 -0.037983693 -0.13338988 0.005056868 -0.13328068 -0.06210426 -0.121282786 0.0815485
-0.19747613 -0.13832004 -0.107022315 -0.12796028 0.0065536816 -0.19853114 0.13859841 -0.19953482
0.11110361 0.001844829 -0.09286115 0.08717667 0.015344065 0.14080894 0.0097734155 -0.09792584
0.013119751 -0.09179738 0.051231973 0.14108147 0.078869164 -0.09852912 0.09335904 0.019501502
0.05772685 -0.16027768 -0.23361333 -0.10243291 -0.1787193 0.12520179 0.011551134 0.044453185
0.025738733 -0.04455601 0.11013327 -0.18051331 -0.033042535 -0.17568196 0.01782718 -0.1231623
0.015533232 -0.07446178 0.101328544 -0.17019472 -0.16602199 -0.1762532 0.11746083 0.02080296
0.12153043 -0.19764337 -0.21488747 -0.21505652 -0.17355783 0.04589088 -0.012125553 0.1027659
-0.13393366 -0.124901354 0.13275172 -0.054253146 0.0817956 -0.057057545 0.09127375 -0.21731317
-0.14360872 0.010558439 0.057425566 -0.006540864 0.158984 0.11489861 -0.12514247 -0.0885395
0.14409143 -0.06801416 -0.065799475 -0.14323208 -0.036405653 0.12050419 -0.021885403 -0.092510946
0.051180985 -0.13868487 -0.1158066 -0.057467815 -0.11812906 -0.062213317 0.23216917 0.044813547
0.07442227 -0.18601139 -0.13563342 -0.0673552 0.014683611 -0.12650865 -0.024963474 -0.07121872
0.0004776446 -0.06311773 -0.019669669 -0.15307917 -0.14392486 -0.12250251 -0.04003873 -0.10912235
0.18920024 -0.024199078 0.19039148 0.072432235 -0.14702444 0.16624185 -0.016067019 0.07592236
-0.034833003 -0.07872677 0.24881221 0.12326465 0.21868487 0.019042434 0.29142967 -0.01635608
0.097445495 0.14783289 0.17421982 0.3152381 0.30729276 -0.067199185 0.17737356 0.015880942
0.030047439 -0.022095561 0.27150637 -0.08629881 0.24291079 0.17791966 0.1149599 0.00040289425
0.24389316 0.05149302 0.015542971 -0.18459158 0.07377177 -0.036627915 -0.102678135 0.15847266
0.03669951 -0.113166764 -0.097406484 -0.017432084 0.09728341 -0.05541937 -0.11782916 -0.075686894
-0.1498396 0.060814366 0.14131558 -0.18118028 0.034699097 0.08765063 0.028963365 -0.078381665
0.088994 0.09523779 0.062092535 -0.043317866 -0.050961033 -0.008177354 -0.05683002 -0.1310386
0.13259575 0.18440087 -0.044057876 -0.060984652 -0.0069366004 -0.074971884 -0.006143219 0.015693214
-0.25976232 -0.091554075 0.15809436 0.034712337 -0.038283926 -0.12387215 -0.18187232 -0.2125683
-0.08639672 0.0112436395 0.11467494 0.095436215 -0.19146042 -0.13044964 -0.015762359 0.16679382
-0.0080015585 -0.08280566 0.041370064 -0.09646563 -0.14754006 0.116701156 -0.10134511 -0.058059514
-0.20874824 0.08619562 0.106668785 0.026212333 -0.1722339 -0.22124639 -0.19017692 0.114514895
0.06173048 0.13524371 0.05127288 0.006089994 -0.038855255 -0.18625368 -0.18875468 -0.20050481
0.03128376 -0.13009451 -0.06140674 -0.116612844 -0.03963577 -0.13545309 -0.14312695 0.049158875
-0.05719547 0.105105735 -0.074407406 -0.14117508 -0.043225277 -0.099721335 -0.05887848 -0.20002942

conv_block_1.0.bias f4 [10]
00000000: 4b69 85bc fdf8 6cbe 325b d73d 8fe7 b63e
00000010: 213f bf3e 3c53 4cbe efb7 2cbe 85a2 fa3c
00000020: 071d 0b3e d1da 50be
-0.01628556 -0.23141856 0.10515441 0.3572354 0.3735285 -0.19953626 -0.1686704 0.030595073
0.13585292 -0.20395972

conv_block_1.2.weight f4 [10, 10, 3, 3]
00000000: 1357 57bd 820d 96bd eac5 62bc 61d1 bfbd
00000010: 0050 59bd fef7 29bd 1cac 08be 9708 973d
00000020: eca9 b03d 0243 1abd 06c6 48bd 862e 56bd
00000030: 024f 20be 985c 30be 33ec 08bc 263a 46bd
00000040: a575 d3bd dfdc b3bd ebf4 8fbd 9f1a 87bd
00000050: 7802 97bc 4a2a 7abd 8b37 83bd 4465 79bd
00000060: 7357 febd 559f 743d ef45 6bbd a3a0 1abc
00000070: 8e3d 9bbd a5ee f7bc 6626 7d3d 0761 543c
00000080: a563 04be 032d c53a e2c1 823d 72e1 8cbc
00000090: a6c9 f43c 4fa1 8b3d 9052 48bd 1282 d3bc
000000a0: 521c e0bd 10ba 56bd 49ab f13c 6378 a63c
000000b0: d759 d7bd 47d0 c3bd 8073 babd 828c 73bd
000000c0: 51f3 d6bd 2b30 7cbc b542 933d d9b3 84bb
000000d0: 71e5 00be 23a6 21be c2c9 563d 3f94 a0bd
000000e0: f0a4 54bc ba1d 4f3d 71d2 47bd 9050 3cbc
000000f0: f853 16bc f04a ccbc 12ea 5abd f638 ebbd
00000100: 4ec5 e0bd fe06 a8bd f7b6 973d a4a8 88bd
00000110: 4ffd b5bd 0e91 573b e5cf 723c 3a2f 443d
00000120: 73d8 6f3d 9d7d 3a3d 9952 f3bd 73b9 abbc
00000130: b1f7 343d de46 89bc bc5a cabd 1c94 9b3d
00000140: 498f 78bd 6fd1 75bd 45a0 c2bd 6049 9a3b
00000150: 5653 3f3d 4c26 bf3c 64c2 aa3c 23b8 a3bd
00000160: 1a9b c9bd 804b f33a 8089 b63d 1dc7 5d3d
00000170: 843c 89bd b23b 9ebc 875d abbd 2075 65bd
00000180: f80b 833c 48cc 573d 29ce a83d b5ea f0bd
00000190: 9c9d 3c3d 202a cfbd 9d92 333c ea02 773d
000001a0: a01b bbbc ba82 863d 4c2c eabd c93c 85bd
000001b0: d1f2 783d d687 bfbc 62f8 abbc 0f88 30bd
000001c0: b80a 983d 1356 543d e978 013d 6fbc 77bd
000001d0: 9078 b6bd 6147 d2bc 1335 4ebc b8c7 b6bd
000001e0: 6ab0 96bd ed98 d73b bd28 34bd a31d 35bd
000001f0: 3b0b adbd b182 1dbe 775b 08be 788d b2bd
00000200: 7041 bdbd 612f 28bc d9ef b1bd 86e1 c1bd
00000210: 18ce 443d a430 f1bc dc54 a83c 783d a1bd
00000220: 3453 2abd 0a6f e83c 4445 eebd 2f0c a7bd
00000230: f139 7ebc 2eca 48bd e91c 89bd a6c0 813d
00000240: e999 ad3d f814 8c3c 9040 c0bc 4df6 c7bd
00000250: 2c43 1dbd 55fc 023d 4904 2b3d 8853 5abc
00000260: 8ba3 15bd 7e4a f83c 9ceb f4bd b6d9 013d
00000270: c85d 90bd cd94 c3bc 0bd2 56bd 7517 6cbc
00000280: 9e6e 63bd 16e0 513d 86d0 5fbd ed9d e83c
00000290: 3793 563d 0f6b dabd b584 02be c6ec 003d
000002a0: 3d02 e03c cc05 11be 8b87 98bd 15e2 d4bd
000002b0: b9b7 b0bd a550 ccbb 64b9 e53c 5c0c b73c
000002c0: a2b3 9fbc 152a c73d 30ed 763c 894d 79bd
000002d0: 008c c3bb 8d2b c7bb fafb b43b 5b72 31bd
000002e0: 6728 053c 6d8d aebd d367 65bd aa2c b6bd
000002f0: b5ee 8f3d 8d8b b83d c750 c13d 2272 7d3d
00000300: c715 a33d 7029 67bc 7a90 6dbd daba 573d
00000310: 8bba 5fbd 55b0 91bd a0b9 d4bc 47b5 26bd
00000320: 1515 5e3d 1596 81bb 0138 4abd 8d7e b3bc
00000330: 3c15 d7bc 6a19 02be 4bec c1bb 4064 17bd
00000340: f82f b23d 1d7f b03d c1d7 1f3c 82e6 4e3c
00000350: 0606 8bba bc02 bebc 064e 0fbd edca cfbc
00000360: b515 aa3d f0d5 fc3d 78e2 3cbd bfa4 67bd
00000370: 38e8 16bd 5588 9abd bafb 6ebb f4c9 623d
00000380: e403 6b3d 5c94 883c 84b5 d6bd 69f3 74bc
00000390: 6ccd 60bd d47b 51bd 91b0 443d d891 03be
000003a0: 6398 893d 6ed5 38bd 8498 88bd 327a b3bd
000003b0: 5119 bc3d 736c ccbd efd9 a23d a03a 68bb
000003c0: d8d9 48bc f306 873d f89f 1fbc b656 0d3d
000003d0: 4915 9c3d 776d bbbd d601 943d 45b4 403d
000003e0: 0e00 903c d9dc 403d 9539 843d c839 c6bc
000003f0: 1c99 fe3c a8d4 963d 88c4 d23d 2d32 41bc
-0.052573275 -0.07326795 -0.013841132 -0.09366108 -0.05305481 -0.04149627 -0.13346905 0.07374685
0.0862616 -0.03766156 -0.049016975 -0.052290462 -0.15655139 -0.17222822 -0.0083570955 -0.0483953
-0.10325173 -0.08782362 -0.07029136 -0.065968744 -0.018433794 -0.061075486 -0.06407078 -0.06088759
-0.12419023 0.059722263 -0.05743974 -0.009437713 -0.075801 -0.030265162 0.061804198 0.012962586
-0.12928636 0.0015043322 0.063846365 -0.017197344 0.02988131 0.068178765 -0.048906863 -0.025818858
-0.10942902 -0.052423537 0.02950062 0.020321077 -0.105151825 -0.0956121 -0.09104061 -0.05946017
-0.10495628 -0.0153923435 0.07190458 -0.00404976 -0.12587525 -0.15786032 0.052438505 -0.07840776
-0.012978777 0.05056546 -0.048784677 -0.011493817 -0.009175293 -0.024938077 -0.053445883 -0.11485474
-0.10975133 -0.08204459 0.07407945 -0.06672791 -0.088862054 0.0032892856 0.014820074 0.0478966
0.05855603 0.04552995 -0.11880989 -0.020962453 0.04418153 -0.016757425 -0.098805875 0.07596609
-0.060683522 -0.060014185 -0.09503225 0.004708454 0.046710335 0.023333691 0.020844646 -0.07994106
-0.098440364 0.001856193 0.08912945 0.054144967 -0.067009956 -0.019315574 -0.08367448 -0.056019902
0.015996918 0.052685052 0.08242447 -0.11763517 0.046048746 -0.101154566 0.010960248 0.060305513
-0.022840321 0.06567903 -0.1143423 -0.065057345 0.060778443 -0.023380201 -0.020992462 -0.043098506
0.074239194 0.0518399 0.03160945 -0.06048244 -0.08909714 -0.025668802 -0.012585896 -0.08924812
-0.07357867 0.0065795095 -0.043984164 -0.044217717 -0.08449408 -0.15381886 -0.13316141 -0.08718389
-0.09240997 -0.010265202 -0.086883254 -0.09466843 0.04804811 -0.029442139 0.020548277 -0.07873052
-0.041583255 0.02837326 -0.11634305 -0.08156621 -0.015516744 -0.04902094 -0.06694967 0.06335573
0.08476622 0.017099842 -0.023468286 -0.09763775 -0.03839414 0.031978924 0.041752134 -0.013325579
-0.03653292 0.030308958 -0.119590014 0.031701766 -0.07049137 -0.023874665 -0.052446406 -0.0144098895
-0.055525415 0.051239096 -0.054642223 0.028395617 0.05238649 -0.10664951 -0.12745936 0.031475805
0.027344817 -0.14162368 -0.07447728 -0.10394684 -0.08628792 -0.0062351995 0.028042503 0.02234476
-0.019494835 0.097248234 0.015071198 -0.06086496 -0.005967617 -0.0060781897 0.005523202 -0.04332195
0.008127308 -0.085230686 -0.056007218 -0.08895238 0.07027952 0.09010992 0.09439235 0.061876424
0.07963138 -0.014109001 -0.05799911 0.05266843 -0.05462126 -0.07113711 -0.02596742 -0.040700223
0.054219324 -0.0039546588 -0.049369816 -0.02191093 -0.026255243 -0.12705007 -0.005918061 -0.03696084
0.087005556 0.08617995 0.00975603 0.0126281995 -0.0010606654 -0.023194663 -0.03498652 -0.025365317
0.083049215 0.12345493 -0.046114415 -0.0565536 -0.036842555 -0.075455345 -0.0036465959 0.05536838
0.057376757 0.016672306 -0.1048384 -0.014950612 -0.054883406 -0.051143482 0.04801995 -0.12848604
0.067185186 -0.045125417 -0.06669715 -0.08763541 0.09184516 -0.099816225 0.07951724 -0.0035435334
-0.012258969 0.06593122 -0.009742729 0.034506522 0.07621247 -0.09151738 0.07226913 0.04704692
0.017578151 0.047085617 0.064562954 -0.024197474 0.031078868 0.0736478 0.102913916 -0.011791748

conv_block_1.2.bias f4 [10]
00000000: ec8d 2abd b1fa 7bbb 3aa7 10be 9ca2 dfbd
00000010: 497c bfbc 5b5b 31bd 0995 6abd fcca f9bc
00000020: 10c0 6b3e 082d 103d
-0.041639253 -0.0038448984 -0.14126292 -0.10919687 -0.023374693 -0.043300014 -0.057271037 -0.030492298
0.23022485 0.035199195

conv_block_2.0.weight f4 [10, 10, 3, 3]
00000000: 0cbd 0dbd a38e 993d 14be ae3d 82aa aabd
00000010: b27b c0bd 32fc a4bd d550 68bd a0ad 4fbd
00000020: d5ab 38bb 9529 19bd f482 85bd f7d1 39bd
00000030: b24b 4dbd 2a47 ba3d d12e 52bd 8fda b3bd
00000040: b7f6 fd3c a9e7 9abc 65c1 9a3d 8568 913d
00000050: 5f55 c63d 5b8f 93bd 6354 953d 5f2c b53d
00000060: d263 40bd 06f5 d03d e1d4 a13d 7082 ce3b
00000070: 6f1c c33d 7bfb 01bd 54c4 b1bd ed49 8e3d
00000080: 4d48 d73c d016 8dbd d266 513d 7468 b8bd
00000090: 3017 a83d 3f51 c83d 1cc0 9abd 7b8a 98bd
000000a0: 0b9b 2e3d 858b 9bbd 3453 66bd 3775 62bd
000000b0: 0237 623c 3e98 3cbd dda0 dbbc e86c eb3c
000000c0: dc8e 9a3b 18a6 ab3d a16e 67bd e670 21bb
000000d0: 184b a83c 0b40 ddbc 66ca 4b3d a2cf 0cbc
000000e0: 8355 4cbe 71b5 45bd 3219 a0bd 4b46 9fbd
000000f0: db2b d5bd b66a 4abe 6c0b a5bd 9b1d a9bc
00000100: 912e 2abd cf48 b23d d647 07bd 2c41 6a3d
00000110: 5364 863c 11b2 cabd 81c6 663c d08e 9e3d
00000120: ccfc 6abe acf5 7cbe a5d7 a3bd d4ab 53bc
00000130: 3a06 c5bd 195c a1bd 6ae1 88bd 3d47 20be
00000140: 15f5 c2bd 6ca6 a63c 91dd 39bd 42a3 ae3c
00000150: 91fc d4bd c716 6f3d 1795 983d a6d9 2f3d
00000160: e44d f23a 0467 9a3c 2124 91bd 0c5a 98bc
00000170: 954c e63c e6c7 98bd d1c7 9bbd 1d16 d53d
00000180: 822c 583d 9489 cebd ce91 e83c f443 8dbb
00000190: 78ed 573d 5bda 0a3c b000 5f3d cba4 a3bd
000001a0: 7355 b93c a153 403d fe77 06be ab96 eebd
000001b0: 9cc7 ae3c 5ac1 6b3d 8f80 56bd 8034 3e3c
000001c0: 0076 20b9 cc8f da3c 0b01 68bd 0287 733d
000001d0: 9d8f 8f3d f2c9 95bd 00d8 853a 0056 9939
000001e0: cea4 0a3d d71b c93d 943c fd3c 8435 c4bc
000001f0: 25e3 c13d 264c 24bd e85b f1bd 33ca 9ebd
00000200: 4b34 0abe 5865 c2bc 2bd5 cfbd 69a6 07bd
00000210: 98ac 24bd 24e7 aebc 968b d6bd 4f9f a0bd
00000220: 2cab a33d dcca 863d 2200 11be dbad 023d
00000230: b58e bcbd 0407 13bc 87b5 b73d 7ce5 793d
00000240: ba4f 3dbe dd97 25bd 5409 20bd e93d d2bd
00000250: 8236 093c 26d0 febd 8da7 b0bd 765b e6bd
00000260: 44ef e5bc e5e2 0a3c 95c1 c2bc ad8f 86bd
00000270: 3a8c abbd 1ef5 28bb c5ae 11be e6e8 01bd
00000280: 5b4c acbc f273 75bd 5bb6 eb3c e3c2 9b38
00000290: 3243 383d 61c9 76bc 931c a3bd 3f81 5d3d
000002a0: 44f0 71bb 5f78 47bd 2649 cabd 90b3 cdbd
000002b0: 3000 70be a660 dcbd b116 9abd fc89 59be
000002c0: c32a 3ebe 093d 31be 4402 a13a 96d5 fbbb
000002d0: 4fd1 9abc 8f8c 993d b119 35bd e894 fabd
000002e0: 2a3e 113c e63f ab3a 4d31 923d e3c2 09bd
000002f0: 0e8c 0e3d 331e 563d a295 813d 3fb3 f0bd
00000300: 2b6a 973d e609 d0bd 4ae7 a83d 68ae 8cbc
00000310: 1243 d8bd bcd6 903c e9e1 63bd 4a19 08be
00000320: 3ce7 7ebd 407d 45bb 7d7d 7a3d bcb7 7abd
00000330: 77a0 133d 09bd 5bbc 427c cdbc abee f43c
00000340: a856 d7bd b6c9 bdbd 56be c7bd 31aa d6bc
00000350: 87e3 4bbc 7d7d 09bd 975a bbbd 9427 52bd
00000360: d50f 95be d400 7dbe 3f3f 13be 5ae3 83bd
00000370: f255 4fbe 9901 54bd 9cd9 4f3d b34f 2fbe
00000380: 6c2a 2abd d4cb c1bc b10f 9ebd d251 de3b
00000390: 1067 d7bc fe65 073d 816d cc3c b503 683d
000003a0: 47c2 90bc 106f afbd 0ce8 1abe dd0b 80be
000003b0: 80e7 e5bd 3e37 0ebe 3c64 68be 007b 57be
000003c0: 136b e23d 87e1 edbd be99 53bd 89fd b03d
000003d0: d572 dcbd d27a b23b aa73 5e3d 3619 6b3d
000003e0: dd27 c5bd aae1 c63c d243 95bd a04d 88bc
000003f0: d254 2f3c 0355 38bd 4793 9bbd 7b99 653d
-0.034604117 0.07497909 0.08532348 -0.08333303 -0.09398593 -0.08055915 -0.056717712 -0.05070269
-0.0028178592 -0.03739317 -0.06519118 -0.045366254 -0.050121017 0.09095605 -0.05131418 -0.08781921
0.031001432 -0.018909292 0.07556418 0.07100014 0.09684252 -0.07205077 0.07291486 0.08846354
-0.046970196 0.102029845 0.079019316 0.0063021705 0.09526908 -0.03173397 -0.08680025 0.06947694
0.026279593 -0.06889117 0.051123448 -0.09004298 0.08207548 0.097811215 -0.07556173 -0.07448288
0.04262833 -0.075949706 -0.056231692 -0.055287566 0.01380706 -0.046043627 -0.026810104 0.028738454
0.004716737 0.08381289 -0.05650199 -0.0024633943 0.02054362 -0.027008077 0.04975357 -0.008594425
-0.19954495 -0.04826874 -0.078173056 -0.07777079 -0.104087554 -0.1976727 -0.08058819 -0.020644
-0.041548315 0.087052934 -0.033027492 0.05719106 0.01640526 -0.09897245 0.014085413 0.07742083
-0.22947997 -0.24703091 -0.08000115 -0.012919385 -0.09620328 -0.07878894 -0.06683619 -0.15652175
-0.09519402 0.020343028 -0.045377318 0.021318082 -0.10399736 0.05837133 0.07450312 0.042932175
0.0018486348 0.01884795 -0.07086969 -0.018597625 0.028112689 -0.074600026 -0.07606471 0.104046084
0.05277682 -0.10084835 0.028389838 -0.004311079 0.052716702 0.008474912 0.054444015 -0.07990416
0.022623753 0.046954755 -0.13131711 -0.116498314 0.021335416 0.05755744 -0.052368697 0.011609197
-0.00015302747 0.026679896 -0.05664162 0.059454925 0.07009814 -0.07313909 0.0010211468 0.0002924651
0.033848576 0.09819763 0.030912675 -0.0239513 0.094671525 -0.040111683 -0.11785108 -0.0775341
-0.1349651 -0.023729965 -0.101480804 -0.033117685 -0.04020366 -0.02135045 -0.10475843 -0.07842886
0.07991633 0.06581661 -0.14160207 0.031904083 -0.09206907 -0.008973841 0.089701705 0.06100987
-0.18487445 -0.04042803 -0.039071396 -0.10265715 0.008374812 -0.12442045 -0.08625708 -0.112479135
-0.028068192 0.008476947 -0.023773948 -0.06570373 -0.083763555 -0.0025780867 -0.14226826 -0.03171625
-0.021032503 -0.059925027 0.028773477 7.4272764e-05 0.044985957 -0.015062661 -0.079644345 0.054078337
-0.003691689 -0.04869878 -0.09877233 -0.100440145 -0.23437572 -0.10760622 -0.07523859 -0.21244043
-0.18571 -0.1730844 0.0012284 -0.0076853735 -0.018898634 0.074975125 -0.044213954 -0.12235433
0.008864919 0.0013065308 0.0713831 -0.033633124 0.034801535 0.052274894 0.06327368 -0.117529385
0.07393297 -0.10158138 0.0824724 -0.017173007 -0.10559668 0.017680518 -0.055635367 -0.13290897
-0.06223224 -0.003013447 0.06115483 -0.06121038 0.036041703 -0.013411769 -0.025083665 0.029898962
-0.10514575 -0.09266989 -0.097531006 -0.0262042 -0.012444383 -0.03356694 -0.09148138 -0.051307276
-0.2911364 -0.24707347 -0.14379595 -0.06439848 -0.2024763 -0.051759336 0.050744638 -0.17120247
-0.041544363 -0.023656763 -0.07717837 0.006784656 -0.026294261 0.03305625 0.02495456 0.05664416
-0.017670764 -0.08566105 -0.15127581 -0.2500905 -0.11225796 -0.1388826 -0.22694486 -0.21043015
0.11055579 -0.116152816 -0.05166029 0.08642108 -0.1076409 0.00544677 0.054309525 0.05739709
-0.09626744 0.024277527 -0.07288326 -0.016638577 0.010701375 -0.04500295 -0.0759645 0.056054574

conv_block_2.0.bias f4 [10]
00000000: 9ee6 4d3c 097c 9dbd 4b84 f23d f88e cebd
00000010: c33d 06be b200 efbd 2333 f13c 726c fe3b
00000020: ff30 58bd 2553 643c
0.01256719 -0.076896735 0.11841639 -0.10085863 -0.13109498 -0.116700545 0.02944333 0.0077643925
-0.0527811 0.013935839

conv_block_2.2.weight f4 [10, 10, 3, 3]
00000000: a378 7c3d b1dc e23c a313 71bd 33ad b5bd
00000010: f29b ecbd c80a ad3c 3d6f 33bd 6bc9 f03c
00000020: b975 98bc 0751 eabc 5189 1c3d cd2d 00bd
00000030: 3972 77bd f157 13bc db92 703d b334 9c3c
00000040: 90da 8c3d 2ca4 6e3d d603 68bd 552d 33bd
00000050: 3703 72bd 75c3 a83d 9ade 503e 1c64 423e
00000060: 8f9b 6f3d 406c 353d 46ca 0a3e ff76 05be
00000070: 4725 9d3d c00d ad3d 6a23 9ebd 0f7a 1bbe
00000080: 5ff0 7dbe 9d70 cdbc 68ad 07be c0fb 85bd
00000090: becd b03d f13d 93bd 9ba4 093d 8d8b 31bc
000000a0: 3223 923d 67ef 25bd 8096 b93d 53fc 8a3d
000000b0: 6c9c ad3d 3a23 c63d acc7 823c fbaa c3bd
000000c0: 9b1b 9a3d 881a 1e3c 6017 093b 1fcd 8cbd
000000d0: 8c65 003c 848f 51bd dad0 903d 60b2 2e3d
000000e0: 047e 3f3d 2197 213d b156 c7bd 6694 9cbd
000000f0: 00e1 95bd ccca 94bd 3287 543d f6ec 063d
00000100: 5db6 a83d 627c 02bc 673f b6bd 308d b9bc
00000110: be81 993d 3292 903d 2a3d 1a3d 893b cfbc
00000120: 937e c9bd 84fe 67bd fa1b 613d 622a cdbc
00000130: 250b 8b3d 44c6 eb3c 06d5 25bd 997c 833d
00000140: 410c 22bb 1f4c d4bc 4cc4 c6bd a8b0 22be
00000150: b51d 7e3d bcc0 2d3c e93b 38be efb2 563d
00000160: ee6c c6bd 0be1 1ebe aea3 c2bd d93a a5bd
00000170: eab4 a6bd 27ef 18bd 76a7 8cbd 6f67 21be
00000180: 26ac c6bc 92e2 2cbd df1e e3bc e935 c73d
00000190: 30b1 843d 6dd8 7abd 19f9 96bd fa6c a5bc
000001a0: be50 30bd a241 9f3c a273 e6bb 67f0 a73d
000001b0: e0b1 d5bc b75c a1bc 2090 93bc 0a78 b7bd
000001c0: 64a9 b1bc ebd4 623d 442d 0bbe 8924 e73d
000001d0: 5d54 efbb 76d4 6bbe cf8d f5bd 6a25 a53d
000001e0: 936a 06be 7527 07bd d439 e8bd cc7e 16be
000001f0: f2b4 5cbe 8212 88bd c94a 9e3c 1735 ee3d
00000200: 2dd1 b43d 9f94 6cbd 7487 dd3c bbe7 b9bd
00000210: c505 223c 131a 6abd 0449 5d3d 3eaa 9bbd
00000220: 7ba5 ca3d 1f08 a33d 069a 94bd 635b c1bd
00000230: e0c4 863b 4728 7abd a47f fd3c 8721 92bd
00000240: e6e5 e33c 07c8 d5bd 2cea 8cbd 01b7 8ebd
00000250: 7b2f 133d 574c 8dbc 0130 e9bd bff5 96bd
00000260: 2aa4 81bd 8a23 c7bd 155a 1e3c 1340 0e3d
00000270: 92f3 92bc 0136 36bd 4e21 38bb 36dc aebd
00000280: 27b4 8cbd 1e1f 33bc 01c8 bf3d c8c4 04bd
00000290: 0e01 563d a7d4 c4bc 25ac 72bc 2954 aabd
000002a0: 11da b23d df34 d23d c017 11bb 0db0 623e
000002b0: beb3 dabc 9b10 d9bd b6e5 ba3e cc2c d339
000002c0: 5df9 80be e2ae d23d 1b87 393e a2b5 9ebe
000002d0: bfd8 c2bd 92c6 89bd 041a e8bd a847 87bc
000002e0: 95bc 5fbb 0fa7 a4bd 70c6 5a3d 87d2 6dbd
000002f0: 4daa 44bd 5263 673d 7ca5 923d a22a f2bc
00000300: 3516 cfbd 65e4 99bd 54c7 41bb 4d68 f73c
00000310: 8d2f ab3c ec05 a0bd 696a e8bd c4cc e4bd
00000320: a0b9 36bd b63d d1bc c5e8 95bd c04e f3bd
00000330: 5e6c 07bd faab cdbd f338 e9bd b0cb e5bd
00000340: c0b0 a3bd 6db9 cdbb 2a83 4abb 2a29 30bd
00000350: c560 22bd 3f03 5fbc c5e6 a3bc 3847 e9bd
00000360: 2524 1dbd 387e 38bd d7de c33c 7036 8fbd
00000370: f3fd f13b 631d 44bc ad4e a63d c6d3 e53d
00000380: 10ce b33d 00b6 c13b 7cca 0bbd ac41 dc3c
00000390: 7aaf 9dbd 5325 38bd 9477 adbc e8e2 cabc
000003a0: 7a80 ccbd f2a2 2b3d cec6 973d d019 96bd
000003b0: 7fef 5c3c 8497 f6bc cb09 d3bc 3092 41bc
000003c0: 8359 9e3d 0fd7 8bbb beda 9ebd ee29 35bd
000003d0: 901b 3d3d f6a1 0d3d c5dd 4dbc b878 dabc
000003e0: 2ec4 47bd 1a71 46bd 69b4 8bbd 0eaa 773c
000003f0: bc82 f23c c14e a53d 4014 c3bc dc6a 20bc
0.061638486 0.027693124 -0.058856618 -0.08870926 -0.11553182 0.021123305 -0.043807257 0.029392919
-0.018610822 -0.02860309 0.038216893 -0.03129368 -0.060411666 -0.008993135 0.058733802 0.019068098
0.06877625 0.058262035 -0.056644283 -0.043744404 -0.059085097 0.082404055 0.20397416 0.18983501
0.05849796 0.04429269 0.13553724 -0.13033675 0.07673126 0.08449888 -0.077215984 -0.1518328
-0.24798726 -0.025078112 -0.13249743 -0.06542158 0.08632992 -0.07189549 0.033604246 -0.010836494
0.07135619 -0.040511515 0.09061909 0.06786408 0.08477101 0.09674688 0.015964352 -0.09554096
0.075247966 0.00964988 0.0020918474 -0.06875061 0.007836711 -0.051162258 0.07071085 0.04265058
0.046751037 0.03945077 -0.09733332 -0.07645492 -0.07318306 -0.07265243 0.051886745 0.032940827
0.08237908 -0.0079642255 -0.08898812 -0.022650331 0.074954495 0.070591345 0.037655987 -0.025296943
-0.09838595 -0.05663921 0.05495832 -0.025044624 0.06789235 0.028781064 -0.040486358 0.064202495
-0.0024726542 -0.025915204 -0.097054094 -0.15887702 0.06204005 0.0106050335 -0.17991604 0.052416738
-0.096887454 -0.15515535 -0.09503876 -0.08067865 -0.08139975 -0.03733745 -0.06867878 -0.15762113
-0.024252009 -0.04220826 -0.027724681 0.097270794 0.06479108 -0.061241556 -0.0737173 -0.020193566
-0.04304575 0.019440476 -0.0070328275 0.0820015 -0.026085794 -0.01969753 -0.01801306 -0.089584425
-0.021687217 0.055378836 -0.13591486 0.112862654 -0.007303758 -0.23030266 -0.119899385 0.08063777
-0.13126592 -0.032996614 -0.11339155 -0.14696807 -0.215534 -0.06644155 0.01932277 0.1163122
0.088289596 -0.057758924 0.027042128 -0.09077402 0.009889071 -0.057153773 0.05402471 -0.076008305
0.09894844 0.07960533 -0.0725594 -0.09441259 0.004112825 -0.061073568 0.030944653 -0.07135301
0.027819585 -0.10438543 -0.06880602 -0.06968499 0.035933953 -0.017248316 -0.11386109 -0.07371091
-0.0633014 -0.097235754 0.009665032 0.034729075 -0.017938409 -0.044485096 -0.0028096023 -0.08538096
-0.06870299 -0.010932712 0.093643196 -0.032414228 0.0522471 -0.024027182 -0.01481155 -0.083168335
0.08732999 0.102639906 -0.00221394 0.2213747 -0.026697036 -0.1059887 0.3650338 0.00040278432
-0.2519025 0.102872625 0.18117945 -0.3099795 -0.09513997 -0.067273274 -0.11333087 -0.01651366
-0.0034139503 -0.080396764 0.0534119 -0.058062103 -0.048013974 0.056491204 0.0716047 -0.029561345
-0.101116575 -0.07514266 -0.0029568272 0.030201102 0.020896697 -0.078136295 -0.11348421 -0.111718684
-0.04461062 -0.025542121 -0.07319788 -0.11880255 -0.03306233 -0.100425676 -0.11387815 -0.11220491
-0.07992697 -0.006278208 -0.0030900934 -0.043008007 -0.039643068 -0.013611614 -0.0200075 -0.11390537
-0.03836455 -0.045042247 0.02390997 -0.06992805 0.0073850094 -0.011969897 0.08120475 0.11222033
0.08779538 0.0059115887 -0.03412865 0.026886784 -0.07699485 -0.04495747 -0.021175183 -0.0247664
-0.099854425 0.041903444 0.07410966 -0.07329142 0.013484835 -0.030101545 -0.025761506 -0.011814639
0.07731917 -0.0042675803 -0.077565655 -0.04422944 0.046168864 0.034578286 -0.012565081 -0.026668891
-0.048771076 -0.048447706 -0.0682152 0.015116228 0.029603355 0.08071662 -0.023813367 -0.009791102

conv_block_2.2.bias f4 [10]
00000000: 5117 fc3d 8d0d 763d 25eb febc 296d bebd
00000010: bc3f 33bc b882 babd 2bd7 14be 606d 293e
00000020: 11c5 9fbd 8939 2bbe
0.12309135 0.060071517 -0.031117985 -0.092981644 -0.010940488 -0.09106964 -0.14535205 0.1654563
-0.07801259 -0.16721167

classifier.1.weight f4 [3, 2560]
00000000: cfd1 23be 11c4 00be 20b4 1bbe cf40 0cbe
00000010: 27d4 31be c0c2 0ebe ea7b c4bd e126 62bd
00000020: a662 5abd 1076 aebc 3594 90bd bed7 e8bd
00000030: 2bef 45be cd8b 17be 81d1 fabd abec 37be
00000040: 8d2c 8fbd d7e1 bbbc f1a4 bbbc c71e 22bd
00000050: 84cd 5ebd 0cb7 85bd 079a 5a3c 0435 cdbc
00000060: 585d ce3c d0c3 563d 9649 19bd 1e59 00bd
00000070: 065a 83bd 85cc c5bd ca7b 893c 5db8 c53b
00000080: 95ba 79bd 21ae d53b 1e62 2abc f0b9 db3c
00000090: 7198 45bd f354 d4bd 809f bd3c c6ca b63d
000000a0: 3dae 1b3e a7ae 173e 45d4 c83c 8e00 eaba
000000b0: 3c1c 7b3d fc45 a03c 7e1e 7d3c 5064 213d
000000c0: e405 893d 05a9 d33d 4194 003d fa22 273a
000000d0: fd92 40bd cdc6 a2bd 6c4a f83b 66a2 9b3d
000000e0: 5627 5b3e 0067 253d a121 46bd f164 8abd
000000f0: f7ed 17bb aaf8 f93d f0a1 c73d 9503 273e
00000100: 02ac 873d 9b81 b33c 03c6 b8bd fd70 91bc
00000110: 1b39 4fbd 60a4 e33c eb53 483d afc8 90bd
00000120: 2deb f53d 686b ee3d 20d4 0f3d 4979 a1bb
00000130: 3377 6ebd 526d 9d3d 1215 153e fdbc 1b3e
00000140: c672 81bd 882e 6fbd e631 febd e92e bdbb
00000150: 3ca5 803c ddbf 6fbc 2dc2 833d 2624 cc3c
00000160: bf8c e7bd 15e0 f3bb 87db 86bd 875e 22bd
00000170: 50e4 debd fcb4 30bd 58d1 8c3d fb7b 063d
00000180: 57ea 793c 2883 c83d 7f67 55bc 8f91 c5bc
00000190: 8a8e 86bc 323f 553d 793d 38bd 7268 eabc
000001a0: cd6c 143a 9347 18bd c4cd ecbd 4db8 42bd
000001b0: f3f2 87bd ea64 56bd bce5 84bd 298c c7bd
000001c0: 0539 953c 47b2 e8bc 7616 96bc 90aa 9f3d
000001d0: 194c 0b3d a92f 523d 170c 32bc bf0e 8abd
000001e0: aab2 dbbc 983f 823c a320 1dbe e9b1 37be
000001f0: d4be 6fbc 9cc8 81bc 1e7d 48bb 314e 4dbd
00000200: 13d4 09be cfbf 0fbe 922f 26be 0b55 99bd
00000210: c0ab a1bd 77de 15bd c294 56bb 6b17 53be
00000220: 6570 47be 7fba 0dbe 7364 aebc de6c 0fbe
00000230: fbb7 cdbd ef70 01be dbcd 833d 103e f43d
00000240: 86f0 3f39 4fa1 a03b 8616 35bd 7082 4abd
00000250: ae47 c3bd 5350 dbbd 0860 1ebd 03dc 4ebe
00000260: b777 05be 0809 cebd 6534 deba 4099 ffbc
00000270: 6eb2 1cbe 34da 0cbe 9d14 8e3c 26ac 61bb
00000280: 2aaf 8f3d 880d 573d 54e7 15bd da2b 21be
00000290: 1622 23be 1d17 c9bd 5730 21bb 2677 51bd
000002a0: 9e6f 9539 bd46 a7bd 877a 76bd 23a0 ebbd
000002b0: 64fe 37bd 5567 aa3b c35e 4d3d ba33 1b3c
000002c0: fa2c 6a3d a533 9a3d cbd8 21bd a270 1abe
000002d0: 880c 51be 786d 64bd b80b 813c 7799 5cbd
000002e0: e327 2ebe 259e 5dbe 6ae3 dabc 1d61 f7bd
000002f0: 7728 773c 3ceb 753d 013e fa3b 1074 663d
00000300: 86b0 f43d 24b6 d33d 551c bc3d e5b8 073e
00000310: 17b0 c53c bc95 babc fa7a 913c bca8 98bd
00000320: 51cb d7bd 9fcb 94bd ba7c 953c 3f6b 01be
00000330: a238 32bd 3a8c d0bc c8f0 cd3c 7a5a caba
00000340: fc4e 413d 25e1 0b3c 6753 783d 7d16 183e
00000350: e01a 193e 535d ed3c a4cb 533d ac05 2e3d
00000360: 030a fe3c e202 313d e2da ddbc b80f a8bd
00000370: 9129 96bc 9727 53bd 0868 44bd 8888 40bd
00000380: 9859 0f3e ef7c 203d 68a2 88bb 1671 703c
00000390: 192d fcbc 043c 5ebd e79f 77bd 0219 adbc
000003a0: 8316 98bd 6edb a9bd e743 b0bd 8466 28bd
000003b0: 59ba 23bc c130 8ebc a5b7 5bbb fc3c c33c
000003c0: 2387 443e b118 063e dc5f dd3d 7c4c 783d
000003d0: a63c 873d d4e6 b93d ea4d 593d 9400 ddbc
000003e0: d7e1 64bd b259 a03c 7f66 7f3d 28b3 d63d
000003f0: 0ba4 073e 5b18 c03d 5f51 373d 4dfe 9e3d
-0.15998004 -0.12574793 -0.15205431 -0.13696598 -0.17366086 -0.13941479 -0.09593947 -0.05521286
-0.053316735 -0.021296531 -0.07059518 -0.113692746 -0.19329517 -0.14799424 -0.12246991 -0.17961375
-0.06990919 -0.022934837 -0.022905799 -0.039580133 -0.054395214 -0.06529054 0.013342387 -0.025049694
0.025190994 0.052432835 -0.037423693 -0.03133499 -0.06413655 -0.0965815 0.01678266 0.0060339407
-0.060968954 0.006521002 -0.0103993695 0.02682206 -0.048241083 -0.10367765 0.023147345 0.08925395
0.15203185 0.14812718 0.02451528 -0.0017852949 0.061306223 0.019564621 0.015449164 0.039402306
0.06690577 0.10334972 0.031391386 0.00063757563 -0.04701518 -0.079480745 0.007577231 0.075993344
0.21401724 0.04038143 -0.048371915 -0.06757534 -0.002318261 0.12205632 0.09747684 0.1630996
0.06624605 0.021912387 -0.09022143 -0.017754072 -0.05059157 0.027788341 0.048908155 -0.07069527
0.12007747 0.1164158 0.035114408 -0.0049277884 -0.058219146 0.07686867 0.14558819 0.15208812
-0.063207194 -0.058393985 -0.12411861 -0.0057734144 0.01570379 -0.014633146 0.064335205 0.02491958
-0.11306142 -0.007442484 -0.0658484 -0.03964093 -0.10883391 -0.04314135 0.06875867 0.03283308
0.015253625 0.09790641 -0.013025164 -0.02411726 -0.01642539 0.05206222 -0.0449805 -0.028614257
0.00056619645 -0.037177633 -0.11562684 -0.047539044 -0.06638136 -0.052342333 -0.06489131 -0.0974353
0.018215666 -0.028405322 -0.018321257 0.07796204 0.03400812 0.051314984 -0.01086714 -0.06741094
-0.026818592 0.015899464 -0.15344481 -0.17938961 -0.014632899 -0.015842728 -0.0030592154 -0.050123397
-0.13459806 -0.14038013 -0.16229084 -0.07486924 -0.07894087 -0.036589112 -0.0032742475 -0.20614402
-0.19476469 -0.13840674 -0.021288132 -0.14006373 -0.10044857 -0.12640737 0.06435748 0.119259
0.00018304781 0.004902042 -0.044210933 -0.0494408 -0.09535156 -0.1070868 -0.0386658 -0.20201115
-0.13033949 -0.10060316 -0.0016952871 -0.031201005 -0.1530244 -0.13755113 0.017343814 -0.0034434884
0.07015832 0.05250314 -0.036597565 -0.15739384 -0.15930972 -0.09818862 -0.0024595463 -0.05113902
0.00028502656 -0.08167789 -0.060175445 -0.11505153 -0.04492034 0.0052003064 0.0501392 0.009472782
0.0571718 0.07529382 -0.03951339 -0.15082029 -0.20414937 -0.05576846 0.015752658 -0.053857293
-0.17007403 -0.21642359 -0.026719768 -0.1207907 0.015085331 0.06003879 0.007636786 0.05626303
0.11947732 0.10337475 0.091850914 0.13254125 0.024131818 -0.022776477 0.017758835 -0.074540585
-0.105368264 -0.072654 0.01824795 -0.12638567 -0.04351104 -0.02545749 0.025139228 -0.0015438341
0.047194466 0.008537565 0.060626414 0.14852329 0.14951658 0.028975165 0.05170788 0.042485878
0.031010633 0.04321564 -0.02708191 -0.08206123 -0.018330367 -0.051551428 -0.047950774 -0.047005206
0.13999021 0.039181646 -0.004169751 0.014675399 -0.030783223 -0.054256454 -0.06045523 -0.021130089
-0.07426169 -0.08293806 -0.08606701 -0.04111339 -0.009993159 -0.017357232 -0.0033526209 0.02383279
0.19192176 0.13095357 0.10809299 0.060619816 0.06603365 0.0907723 0.05305282 -0.026977815
-0.05587944 0.01957402 0.062353607 0.1048339 0.13246171 0.093796454 0.044755336 0.07763348

classifier.1.bias f4 [3]
00000000: ec53 193e 7bb4 03be 5e30 a6bc
0.1497342 -0.12861817 -0.020286735
