PtDeepLearningBootcamp/S3_ComputerVision/model_cnn.pth (torch, 34772 bytes, 10 tensors)

block_1.0.weight f4 [10, 1, 3, 3]
-0.20275702 -0.15343696 0.06154809 -0.22672662 0.056446116 -0.17378986 -0.17462209 0.23694988
0.34485587 -0.10122254 0.0053943763 0.019366885 -0.22753374 -0.05646301 0.22079045 0.02336766
0.33015057 -0.2757339 -0.56201303 -0.54312307 -0.5350111 -0.012092924 -0.01619792 -0.41648197
0.0069685224 0.06327451 0.52376854 0.25854945 0.40652704 0.6073418 0.20351069 0.7223947
0.11053201 -0.4845319 -0.2799158 -0.31215644 0.087354794 0.08291214 -0.015771985 -0.1525995
-0.09527054 0.1375031 -0.3493396 0.051344108 0.37869546 0.10372156 0.18800774 -0.22227095
-0.09833462 -0.17247936 -0.2593027 -0.13684121 -0.021320079 -0.024359744 -0.032205947 0.008018989
0.16352862 -0.0237722 0.3319311 0.3094255 -0.36038876 -0.23744465 0.24444798 0.27435422
0.045126226 -0.36459514 0.3799823 -0.34592378 -0.28776273 0.32069 0.4341478 -0.078866206
0.07044232 -0.04378956 -0.12337018 -0.25057358 -0.21526125 -0.029868722 0.1911894 0.27627456
-0.07185474 0.47212878 0.4222033 -0.08038411 -0.31461975 0.4583853 0.044497192 -0.05569095
-0.09549591 0.008553642
00000000: 899f 4fbe 941e 1dbe da19 7c3d 062b 68be
00000010: 0b34 673d f8f5 31be 22d0 32be fda2 723e
00000020: f390 b03e c34d cfbd 4fc3 b03b 4da7 9e3c
00000030: 9bfe 68be c245 67bd e416 623e 896d bf3c
00000040: 7f09 a93e fe2c 8dbe 16e0 0fbf 1d0a 0bbf
00000050: 7df6 08bf 6621 46bc 80b1 84bc 203d d5be
00000060: 3458 e43b 1196 813d b215 063f 9860 843e
00000070: 5024 d03e c17a 1b3f 1b65 503e dcee 383f
00000080: 9b5e e23d 9114 f8be 2051 8fbe f8d2 9fbe
00000090: 12e7 b23d d7cd a93d 4034 81bc 0b43 1cbe
000000a0: 331d c3bd 9dcd 0c3e a4dc b2be 334e 523d
000000b0: 5fe4 c13e f86b d43d 1a85 403e ff9a 63be
000000c0: a963 c9bd 6e9e 30be 53c3 84be 1a20 0cbe
000000d0: 72a7 aebc 168e c7bc 62ea 03bd 1462 033c
000000e0: 0c74 273e ebbd c2bc e0f2 a93e 056d 9e3e
000000f0: e084 b8be b124 73be 9250 7a3e 2878 8c3e
00000100: 47d6 383d 37ac babe 0a8d c23e ec1c b1be
00000110: a355 93be 7b31 a43e 9f48 de3e 9b84 a1bd
00000120: 1044 903d af5c 33bd 81a9 fcbd 2e4b 80be
00000130: 726d 5cbe 40af f4bc 27c7 433e dc73 8d3e
00000140: 9428 93bd ddba f13e 082b d83e 6da0 a4bd
00000150: d715 a1be 7ab1 ea3e b042 363d 321c 64bd
00000160: 5c93 c3bd 9324 0c3c

block_1.0.bias f4 [10]
-0.025536157 -0.22565801 0.20022258 0.12146358 0.086651616 -0.22771285 -0.015001912 -0.056389257
0.026420671 -0.020241832
00000000: 3431 d1bc e512 67be 2607 4d3e e6c1 f83d
00000010: 6776 b13d 8f2d 69be 94ca 75bc 6cf8 66bd
00000020: 2a70 d83c 33d2 a5bc

block_1.2.weight f4 [10, 10, 3, 3]
0.03062027 -0.084950216 -0.09724948 0.08524235 -0.07100955 0.049980234 -0.05118447 0.07033941
0.041521907 -0.05237207 -0.0021871657 0.012275888 0.0027835327 0.07970737 -0.061678715 0.04799688
0.09563693 -0.076805994 -0.074479915 0.029593924 -0.0076900865 0.02790025 -0.060905933 0.13770716
0.054434054 0.088500366 0.04985306 0.09052368 -0.008927553 -0.1487412 0.015481243 -0.07431158
-0.047501326 -0.14670034 -0.09209547 -0.13652025 0.05005728 -0.06525517 0.088897906 0.048180014
0.08415353 -0.045660943 -0.041399013 0.032384474 -0.017660804 -0.035985444 0.086493105 0.05646684
-0.03115852 0.06390546 -0.070603766 -0.06131666 0.046690024 0.0455024 -0.039995395 -0.10119865
-0.011935503 0.089692354 0.08930235 0.071113855 -0.063607134 0.08673751 0.041516103 -0.07011622
0.023683503 -0.112360224 0.021987468 -0.09118098 -0.08165903 0.018726623 0.07124718 0.07925531
-0.07544261 0.048934467 0.03324055 -0.07342644 -0.027716737 -0.026108617 -0.07783814 -0.07560567
-0.042574104 0.13826227 -0.005593933 -0.019679291 -0.06840494 -0.021391906 0.0015966962 -0.02452063
-0.021413138 -0.012138814 0.13372998 -0.069824964 -0.013664091 -0.12533085 0.0037668461 -0.03881956
-0.0070225378 -0.006816358 -0.00092392816 0.028619109 0.062313855 -0.022750868 0.052640088 -0.034564294
0.074354395 0.09134858 -0.094113775 -0.03391394 -0.07918279 -0.15811992 0.11767856 -0.19989665
-0.14818068 -0.06044991 -0.2046257 -0.35084596 -0.27263635 0.126701 0.12300188 0.08775594
-0.09679982 0.105687775 0.10704006 0.18506643 0.21722308 0.05501259 0.36908203 -0.06911725
0.004779311 0.08988554 0.06511039 -0.07257605 0.04446533 -0.036557388 0.194713 -0.04143772
0.022177346 0.0077003515 -0.041223496 -0.014015369 0.10089463 -0.052901693 -0.026979225 0.07135427
0.20007806 -0.023412943 -0.08657912 0.044679508 -0.063713945 0.09502983 -0.040777054 -0.0056663044
0.10297205 -0.08239057 0.07094133 0.049284052 0.037596967 -0.07431563 0.16277453 0.17408685
0.120158 0.017328307 0.0928541 0.006830401 -0.08001718 -0.076815 -0.11301424 0.0734358
-0.0883519 -0.005473344 0.09012635 0.26678246 0.05592017 -0.063190736 -0.11475455 0.09470661
-0.06102457 0.032055173 0.1718082 0.10780421 0.05505 -0.06751203 -0.019886073 -0.06691336
-0.1005368 0.06944762 0.07478897 -0.008695112 -0.033401106 -0.044071447 -0.027531266 -0.019599317
0.086162426 0.100513056 0.051546052 -0.06005557 -0.039972715 0.013906855 -0.052603073 0.029019374
-0.14185822 0.17382702 0.02210511 0.0969366 0.06860099 0.08127005 0.16982178 -0.12312167
0.014248552 0.03950566 -0.20937748 -0.16959193 -0.15130644 0.17268671 0.028287327 -0.051697575
0.05185388 -0.10021065 0.0074182563 -0.032888398 -0.13337071 -0.12699887 0.10632213 0.0864732
-0.00702042 -0.06764966 0.014599628 0.07514369 -0.022908488 0.0014594625 -0.05184665 0.079670735
-0.06424842 -0.05923189 -0.0718408 -0.023842353 0.010803923 0.06187293 0.050445516 -0.003058451
0.092178784 0.114647485 -0.05140197 -0.0668403 0.05363806 0.05872939 0.072661184 0.025251977
0.07262898 0.06535964 0.19291148 0.026943726 0.051796142 0.09238746 -0.10173114 -0.016299278
00000000: 5cd7 fa3c 61fa adbd bc2a c7bd 8b93 ae3d
00000010: 746d 91bd 13b8 4c3d cfa6 51bd 1c0e 903d
00000020: e012 2a3d 1884 56bd 8d56 0fbb ce20 493c
00000030: ee6b 363b 9e3d a33d d2a2 7cbd 6098 443d
00000040: 4bdd c33d 764c 9dbd ed88 98bd f56e f23c
00000050: 1ffd fbbb 118f e43c 8078 79bd 1b03 0d3e
00000060: 3ef6 5e3d ae3f b53d b932 4c3d 7b64 b93d
00000070: df44 12bc 9d4f 18be 0aa5 7d3c ab30 98bd
00000080: c090 42bd 9d38 16be 8d9c bcbd f7cb 0bbe
00000090: dd08 4d3d 81a4 85bd 1b10 b63d 6858 453d
000000a0: b058 ac3d f806 3bbd 0392 29bd 95a5 043d
000000b0: 64ad 90bc 7965 13bd 4c23 b13d c649 673d
000000c0: 2740 ffbc dee0 823d b598 90bd 2e27 7bbd
000000d0: 0a3e 3f3d b960 3a3d 36d2 23bd 3d41 cfbd
000000e0: 218d 43bc a0b0 b73d 27e4 b63d 24a4 913d
000000f0: 7544 82bd 70a3 b13d ca0c 2a3d 1899 8fbd
00000100: e803 c23c 1e1d e6bd 101f b43c 18bd babd
00000110: d93c a7bd 9368 993c 0bea 913d 9c50 a23d
00000120: a881 9abd 826f 483d 3e27 083d 9a60 96bd
00000130: 360e e3bc bde1 d5bc 9a69 9fbd 25d7 9abd
00000140: 2f62 2ebd a094 0d3e 504d b7bb 7736 a1bc
00000150: e417 8cbd 143e afbc 3c48 d13a 7ddf c8bc
00000160: 9b6a afbc e0e1 46bc 83f0 083e 6400 8fbd
00000170: 5adf 5fbc bb56 00be 31dd 763b 4201 1fbd
00000180: 511d e6bb c15b dfbb c533 72ba 9f72 ea3c
00000190: d03c 7f3d 0760 babc 229d 573d 4a93 0dbd
000001a0: 1e47 983d f714 bb3d b9be c0bd 58e9 0abd
000001b0: 962a a2bd 30ea 21be 7501 f13d b5b1 4cbe
000001c0: adbc 17be 539a 77bd 6689 51be 15a2 b3be
000001d0: fe96 8bbe e8bd 013e 69e8 fb3d 63b9 b33d
000001e0: fc3e c6bd d572 d83d d237 db3d 0e82 3d3e
000001f0: ba6f 5e3e e254 613d 52f8 bc3e 588d 8dbd
00000200: c49b 9c3b e915 b83d 9958 853d c1a2 94bd
00000210: 4721 363d 33bd 15bd d862 473e 99ba 29bd
00000220: 44ad b53c 3b53 fc3b f8d9 28bd b8a0 65bc
00000230: d8a1 ce3d 72af 58bd 8903 ddbc 3022 923d
00000240: 43e1 4c3e 80cc bfbc 6550 b1bd dc01 373d
00000250: 757c 82bd 009f c23d d705 27bd 68ac b9bb
00000260: 03e3 d23d 63bc a8bd b049 913d 13de 493d
00000270: 47ff 193d cb32 98bd 5eae 263e d343 323e
00000280: 6615 f63d 18f4 8d3c 4a2a be3d 8ed1 df3b
00000290: 0ce0 a3bd 2f51 9dbd 0374 e7bd 8265 963d
000002a0: d7f1 b4bd bd59 b3bb 2a94 b83d b697 883e
000002b0: 8c0c 653d 256a 81bd 6f04 ebbd 8af5 c13d
000002c0: e6f4 79bd 494c 033d 7dee 2f3e 74c8 dc3d
000002d0: 1c7c 613d bf43 8abd 1ee8 a2bc df09 89bd
000002e0: 3de6 cdbd 8e3a 8e3d f62a 993d f175 0ebc
000002f0: 99cf 08bd 4384 34bd 4089 e1bc bf8e a0bc
00000300: ed75 b03d cad9 cd3d f421 533d d4fc 75bd
00000310: 6eba 23bd 94d9 633c 5276 57bd 0aba ed3c
00000320: 4843 11be b6ff 313e c715 b53c b286 c63d
00000330: ad7e 8c3d e970 a63d c3e5 2d3e 3727 fcbd
00000340: c272 693c b0d0 213d 0d67 56be 82a9 2dbe
00000350: 13f0 1abe c9d4 303e d3ba e73c d6c0 53bd
00000360: bc64 543d 3e3b cdbd d814 f33b fcb5 06bd
00000370: 5592 08be fe0b 02be 6bbf d93d dc18 b13d
00000380: 8d0b e6bb e88b 8abd 4733 6f3c efe4 993d
00000390: 95aa bbbc 6f4b bf3a 275d 54bd 692a a33d
000003a0: ad94 83bd 239d 72bd 4521 93bd 0a51 c3bc
000003b0: f002 313c 786e 7d3d f59f 4e3d 4b70 48bb
000003c0: 3bc8 bc3d 4dcc ea3d df8a 52bd 91e3 88bd
000003d0: 95b3 5b3d 3b8e 703d 63cf 943d 3cdd ce3c
000003e0: 81be 943d 46db 853d 968a 453e 17b9 dc3c
000003f0: 3128 543d a335 bd3d 6a58 d0bd 1086 85bc

block_1.2.bias f4 [10]
0.18363647 0.29050982 0.102043696 0.003420231 0.09067172 0.015212275 -0.10424417 0.10361123
-0.11081359 -0.04438264
00000000: 330b 3c3e b4bd 943e 49fc d03d f425 603b
00000010: 18b2 b93d e83c 793c f87d d5bd 2032 d43d
00000020: 3cf2 e2bd 92ca 35bd

block_2.0.weight f4 [10, 10, 3, 3]
-0.03856177 0.0897016 0.006001022 0.08656663 -0.08932374 0.11111407 -0.018439269 0.008247788
0.054188453 -0.2953178 -0.004001707 0.17591785 -0.11871505 0.3296592 0.12151125 0.3076624
-0.14082974 -0.49962747 -0.07441865 -0.036777873 0.06269709 0.024107102 -0.10380401 -0.028619077
-0.06841404 -0.045570564 -0.10893887 0.07808653 -0.03740829 -0.15319933 -0.109243415 -0.0029945779
0.0028266709 -0.07545808 -0.047128145 -0.1669783 -0.021801384 -0.04898156 -0.062289193 0.08312075
-0.14945586 -0.033722844 -0.124945566 0.010087694 0.014548719 -0.21514323 -0.033463787 -0.021261811
-0.19579227 -0.07128245 0.19424936 0.08490569 0.15360318 0.0022076478 -0.07159918 0.105286464
0.018455368 -0.07196088 0.04435973 0.10128067 0.0039310316 -0.049564574 -0.056567706 0.0063273413
0.25116843 -0.022154955 0.22196274 0.023321385 -0.14906153 0.23395687 -0.18692721 -0.17887601
-0.058290467 -0.04972931 -0.138104 -0.2614867 -0.122608766 0.005636251 0.12047183 0.11857322
-0.09603861 -0.009887639 0.036715962 5.976799e-05 -0.06394779 -0.013438619 0.094572835 0.17857714
0.10105545 0.048611294 0.017666785 0.08401097 0.08258996 -0.014154397 0.015481502 0.11069048
-0.047052708 0.0049908077 0.08466669 -0.46423668 -0.30804446 0.059235033 0.49482548 0.31742346
-0.2327114 0.40361473 0.096578404 -0.18417004 0.18958303 0.03349513 0.06551957 -0.004833664
0.0778416 -0.024470711 -0.090012506 -0.029232787 0.09887321 -0.13013364 0.023265205 0.054097064
-0.033138856 -0.17231597 -0.06537281 0.07602452 -0.09260029 -0.05728006 0.15142214 0.05704196
-0.022458926 0.051672194 0.021658722 -0.032451965 -0.18904172 -0.018690076 0.10137614 -0.17942518
-0.19291478 -0.041199304 -0.021623803 0.23880883 -0.022078155 0.2721091 0.3113542 0.019913845
0.05334394 0.030479202 -0.09243175 -0.04166293 -0.026130227 -0.063016035 -0.0029858402 0.022852894
0.0052004764 0.2365603 -0.015702097 0.022604413 -0.008893394 0.1293447 0.123303786 -0.28460053
-0.17353615 0.30442062 0.02314271 0.11452307 0.13292912 -0.15263405 -0.15199384 -0.010126361
-0.20008565 -0.18894772 0.016287655 -0.041950658 0.14170246 -0.035401024 -0.20641658 -0.13697189
-0.069841236 -0.27153718 -0.08047818 -0.005046091 0.06772271 0.057651725 0.053677287 -0.08643556
-0.009997294 -0.11796033 -0.06746719 -0.052229956 -0.1662067 -0.12637642 0.01291608 -0.24949569
0.4164449 0.4194733 -0.08494497 0.10334698 -0.10711999 -0.20138165 -0.06524663 0.1375443
-0.011272982 -0.14490011 0.07016451 -0.034723546 -0.09300892 -0.16158105 -0.075224996 0.060693383
-0.09220044 -0.14102593 -0.0121702 -0.017516062 0.026154855 0.020421302 -0.109963275 -0.024674088
0.11247202 0.091286145 0.10662854 -0.031239485 0.0039221453 -0.09999223 -0.16032119 -0.07053707
-0.10039643 -0.07575469 0.025354981 0.08605112 -0.12297327 0.08526407 0.07100108 0.0045001637
-0.017141864 0.011608374 0.07135136 -0.10033033 -0.0021477342 -0.020693358 -0.04955364 0.09814543
0.06567007 -0.08921708 -0.09550251 0.48046592 0.33961177 0.3308635 0.05502774 0.09272122
-0.00042604154 -0.19723159 -0.2969687 0.0492639 -0.09707763 -0.095599584 -0.04270537 0.023576954
00000000: f2f2 1dbd 79b5 b73d 39a4 c43b d849 b13d
00000010: 5def b6bd c68f e33d f30d 97bc bb21 073c
00000020: b6f4 5d3d e533 97be c020 83bb cf23 343e
00000030: e020 f3bd 17c9 a83e e4da f83d ed85 9d3e
00000040: ac35 10be 2ccf ffbe ce68 98bd 65a4 16bd
00000050: 5567 803d 427c c53c 3297 d4bd 8e72 eabc
00000060: a91c 8cbd 33a8 3abd 581b dfbd d5eb 9f3d
00000070: 6f39 19bd 49e0 1cbe 03bb dfbd ae40 44bb
00000080: ab3f 393b c489 9abd 7109 41bd 5cfc 2abe
00000090: d198 b2bc e3a0 48bd f422 7fbd 363b aa3d
000000a0: f50a 19be f720 0abd 76e3 ffbd db46 253c
000000b0: c05d 6e3c 824e 5cbe 5311 09bd 402d aebc
000000c0: c57d 48be 88fc 91bd 4ee9 463e 09e3 ad3d
000000d0: 274a 1d3e 2fae 103b 97a2 92bd 6ea0 d73d
000000e0: b62f 973c 3a60 93bd 8cb2 353d 3d6c cf3d
000000f0: e2cf 803b 3904 4bbd 8ab3 67bd 9655 cf3b
00000100: 2699 803e 4f7e b5bc 334a 633e 7d0c bf3c
00000110: 96a3 18be 6492 6f3e d969 3fbe 462b 37be
00000120: fcc1 6ebd f6b0 4bbd 236b 0dbe 96e1 85be
00000130: 4e1a fbbd 4db0 b83b efb9 f63d 84d6 f23d
00000140: e4af c4bd c4ff 21bc 7a63 163d 64af 7a38
00000150: 0ff7 82bd a72d 5cbc 67af c13d eddc 363e
00000160: 29f6 ce3d a31c 473d efb9 903c f20d ac3d
00000170: ed24 a93d d8e7 67bc 20a6 7d3c b1b1 e23d
00000180: 57ba 40bd ee89 a33b bb65 ad3d 6eb0 edbe
00000190: 01b8 9dbe 6fa0 723d c459 fd3e 5485 a23e
000001a0: e64b 6ebe 97a6 ce3e e6ca c53d 1297 3cbe
000001b0: 0e22 423e 3032 093d 202f 863d b663 9ebb
000001c0: 6b6b 9f3d cd76 c8bc 7a58 b8bd 9979 efbc
000001d0: 0a7e ca3d c141 05be ac96 be3c e294 5d3d
000001e0: 9cbc 07bd 9973 30be 2ee2 85bd beb2 9b3d
000001f0: 39a5 bdbd 7f9e 6abd 680e 1b3e d5a4 693d
00000200: c8fb b7bc 39a6 533d a26d b13c 5aec 04bd
00000210: 2794 41be ee1b 99bc 4b9e cf3d 3cbb 37be
00000220: 748b 45be 9ac0 28bd 6724 b1bc 4d8a 743e
00000230: 3fdd b4bc e251 8b3e d169 9f3e 5c22 a33c
00000240: 2d7f 5a3d 85af f93c db4c bdbd c0a6 2abd
00000250: 0f0f d6bc 8d0e 81bd 16ae 43bb fe35 bb3c
00000260: c268 aa3b dd3c 723e afa1 80bc e42c b93c
00000270: 99b5 11bc f072 043e b286 fc3d 29b7 91be
00000280: 76b3 31be 05dd 9b3e c895 bd3c 128b ea3d
00000290: 921e 083e 1a4c 1cbe 46a4 1bbe 09e9 25bc
000002a0: 41e3 4cbe 837b 41be b06d 853c 74d4 2bbd
000002b0: 731a 113e aa00 11bd de5e 53be 5c42 0cbe
000002c0: ec08 8fbd ec06 8bbe bed1 a4bd ae59 a5bb
000002d0: 34b2 8a3d 3724 6c3d b7dc 5b3d 2005 b1bd
000002e0: b1cb 23bc 2f95 f1bd 3d2c 8abd 14ef 55bd
000002f0: 1732 2abe d268 01be f79d 533c cc7b 7fbe
00000300: 4438 d53e 34c5 d63e a1f7 adbd 95a7 d33d
00000310: ba61 dbbd fe36 4ebe 06a0 85bd 6ad8 0c3e
00000320: 50b2 38bc b260 14be 69b2 8f3d 473a 0ebd
00000330: 767b bebd 8175 25be 900f 9abd a099 783d
00000340: 96d3 bcbd 1a69 10be 8565 47bc d87d 8fbc
00000350: b542 d63c 934a a73c 6d34 e1bd 5021 cabc
00000360: bb57 e63d 3bf4 ba3d 1060 da3d f3e9 ffbc
00000370: 5785 803b bac8 ccbd 3d2b 24be bd75 90bd
00000380: a59c cdbd 4625 9bbd 40b5 cf3c 923b b03d
00000390: 69d9 fbbd ee9e ae3d 0469 913d 1c76 933b
000003a0: 186d 8cbc 0d31 3e3c a920 923d fd79 cdbd
000003b0: 00c1 0cbb 1e85 a9bc c2f8 4abd 7900 c93d
000003c0: 087e 863d 72b7 b6bd d296 c3bd a1ff f53e
000003d0: 98e1 ad3e f166 a93e c464 613d 9fe4 bd3d
000003e0: 545e dfb9 14f7 49be 480c 98be f1c8 493d
000003f0: a3d0 c6bd b7c9 c3bd d3eb 2ebd 7524 c13c

block_2.0.bias f4 [10]
-0.028536156 0.08084642 -0.019440988 0.07996281 0.16123894 0.1409443 0.041775726 0.08558757
0.016065445 0.20094475
00000000: a8c4 e9bc cf92 a53d b542 9fbc 8bc3 a33d
00000010: d21b 253e b453 103e 061d 2b3d 8948 af3d
00000020: ae9b 833c 76c4 4d3e

block_2.2.weight f4 [10, 10, 3, 3]
-0.123016626 -0.12013662 -0.24620421 0.061088946 -0.14401865 -0.3515512 -0.030527338 -0.081934124
0.10756116 -0.23777239 -0.15324673 0.14086606 -0.022176927 -0.20574112 -0.037690043 0.45038435
0.08504941 -0.16331369 -0.39861056 -0.25129938 0.0700498 -0.19533068 -0.51513946 0.10408187
-0.015737724 -0.22468539 0.07812533 -0.3059767 0.0582357 0.07172561 -0.47318184 -0.101097025
0.41361648 -0.3937121 -0.22135113 0.3104321 -0.13585043 -0.101604335 -0.1178222 -0.09871855
-0.015328889 0.3201413 0.10456913 -0.08366715 0.069466926 -0.059437625 -0.22687416 -0.04266937
-0.14030525 -0.17084669 0.03199279 0.31128398 -0.10696118 -0.2761023 -0.20300615 -0.019529205
0.2044944 -0.44126022 0.101934165 0.5521847 -0.32566556 -0.23711099 0.039755967 0.08555483
-0.38865897 -0.30695075 0.2723505 -0.0051348596 -0.2928913 0.33141375 -0.09797504 -0.052578222
-0.045389853 0.07061339 -0.17249297 -0.108836725 -0.10760931 -0.3160139 -0.18298548 -0.11616139
-0.0195311 -0.235531 -0.0045863483 0.33425358 -0.17594352 -0.0711999 0.33824044 -0.22209005
-0.23142515 -0.024737736 -0.14010327 0.071974434 0.14374167 -0.12416876 -0.0701803 0.13614537
-0.04582708 -0.10716839 0.027336497 -0.06370937 -0.24496366 0.16403104 -0.40283158 -0.14558111
0.28638566 -0.27181152 0.21490434 0.26592445 -0.38699126 -0.21492898 -0.07949731 -0.40538204
-0.18740413 0.22344695 -0.47763178 -0.035136096 0.15205261 -0.30933714 -0.039370794 0.09342332
-0.3045273 0.015221789 -0.017306617 -0.27996096 0.031304244 -0.15858364 0.030767899 -0.22098579
-0.18333949 -0.1403707 -0.13434488 0.06274036 -0.21160065 -0.02838513 0.29791978 0.18807851
0.31068262 -0.07479696 0.23524472 -0.22053355 -0.30392584 0.15158057 -0.34368998 -0.08495819
-0.1126777 -0.2191951 -0.118666396 -0.15923277 -0.1715714 -0.09088964 -0.27242365 -0.21016897
-0.19827951 0.11911246 0.015189319 -0.11568475 -0.09267541 -0.1548426 -0.13020258 -0.17399022
-0.26116532 -0.11576229 -0.041663986 0.14079252 0.07587118 -0.006434418 0.04218075 0.1515006
-0.15096313 0.06294277 0.34474266 -0.09565246 -0.11584702 0.083510205 -0.19896473 -0.11269758
0.1558346 -0.18375418 0.2663848 0.15415724 -0.09210781 -0.2556175 0.007766775 0.02664367
-0.08184871 0.011310648 0.027963769 -0.10554719 -0.0021443106 0.119005606 0.21880881 -0.006632409
0.24860331 -0.007402462 0.10838297 0.013587721 -0.29235858 -0.02426765 0.03949395 -0.19039267
-0.17704564 0.18685658 -0.01914284 -0.17250243 -0.018046636 -0.44336477 -0.12507305 -0.17934091
-0.25655502 0.057492975 0.0032988873 -0.25539586 0.10707318 -0.2653106 -0.28988546 0.13382854
0.042789742 -0.0017317383 -0.18896458 0.17687158 0.05264845 -0.07430852 0.15685287 -0.25873154
-0.050112676 -0.025914611 -0.10041323 0.10063825 -0.24717212 -0.07880155 -0.0725515 -0.14006042
0.06344299 0.20406367 -0.04116895 -0.21111181 -0.16958615 -0.008147629 -0.22368845 -0.09660484
0.098879136 -0.22667353 -0.06688352 -0.01650086 0.11570987 0.14403658 -0.300963 -0.26895043
-0.021425337 -0.2106387 0.0072859926 -0.08099542 0.14916494 0.029144004 0.0938572 0.19289115
00000000: 24f0 fbbd 300a f6bd f51c 7cbe 6738 7a3d
00000010: a079 13be 85fe b3be 7814 fabc 14cd a7bd
00000020: 0749 dc3d 9b7a 73be b6ec 1cbe 313f 103e
00000030: 63ac b5bc cdad 52be e060 1abd c798 e63e
00000040: 632e ae3d b43b 27be af16 ccbe 50aa 80be
00000050: 4576 8f3d c404 48be 2ee0 03bf e028 d53d
00000060: 66ec 80bc ed13 66be 2c00 a03d faa8 9cbe
00000070: 8f88 6e3d e0e4 923d e444 f2be f50b cfbd
00000080: 8ac5 d33e a294 c9be dfa9 62be f5f0 9e3e
00000090: 601c 0bbe ef15 d0bd c44c f1bd f32c cabd
000000a0: 0526 7bbc 8fe9 a33e 5728 d63d af59 abbd
000000b0: ad44 8e3d de74 73bd b351 68be 14c6 2ebd
000000c0: 2eac 0fbe 6ff2 2ebe df0a 033d 9d60 9f3e
000000d0: 770e dbbd 485d 8dbe d8e0 4fbe b6fb 9fbc
000000e0: fb66 513e dcec e1be dcc2 d03d fa5b 0d3f
000000f0: a3bd a6be 39cd 72be 27d7 223d 5f37 af3d
00000100: 4ffe c6be a628 9dbe 8671 8b3e 5342 a8bb
00000110: d9f5 95be 10af a93e 23a7 c8bd 435c 57bd
00000120: b6ea 39bd c19d 903d ffa1 30be cae5 debd
00000130: 4562 dcbd 93cc a1be 8c60 3bbe 06e6 edbd
00000140: afff 9fbc 0a2f 71be 1449 96bb 4923 ab3e
00000150: 8a2a 34be 41d1 91bd da2d ad3e 936b 63be
00000160: b7fa 6cbe cba6 cabc 3b77 0fbe 5567 933d
00000170: 0431 133e 314c febd b0ba 8fbd b169 0b3e
00000180: 2db5 3bbd 1a7b dbbd caf0 df3c 0f7a 82bd
00000190: c1d7 7abe c1f7 273e f13f cebe 3713 15be
000001a0: 24a1 923e e12a 8bbe e20f 5c3e 4027 883e
000001b0: b823 c6be 5816 5cbe 7ccf a2bd 3c8e cfbe
000001c0: dee6 3fbe 47cf 643e 278c f4be deea 0fbd
000001d0: aeb3 1b3e 7061 9ebe 4543 21bd ba54 bf3d
000001e0: 01eb 9bbe cf64 793c 9bc6 8dbc 0b57 8fbe
000001f0: e138 003d c063 22be f60c fc3c 194a 62be
00000200: 59bd 3bbe 56bd 0fbe b491 09be 057e 803d
00000210: d7ad 58be ef87 e8bc f188 983e a797 403e
00000220: cb11 9f3e 262f 99bd fee3 703e 8cd3 61be
00000230: 2b9c 9bbe f037 1b3e 22f8 afbe 8ffe adbd
00000240: 91c3 e6bd ae74 60be 5e07 f3bd ea0d 23be
00000250: 6ab0 2fbe 5924 babd 1d7b 8bbe 8936 57be
00000260: c909 4bbe 3cf1 f33d 9fdc 783c 20ec ecbd
00000270: 9bcc bdbd 0f8f 1ebe d353 05be 7e2a 32be
00000280: 76b7 85be c814 edbd dba7 2abd ea2b 103e
00000290: 5962 9b3d cfd7 d2bb b9c5 2c3d f922 1b3e
000002a0: 1496 1abe 24e8 803d 1c82 b03e 70e5 c3bd
000002b0: 3441 edbd 6607 ab3d 69bd 4bbe fdcd e6bd
000002c0: 1b93 1f3e 0e2a 3cbe 9763 883e 65db 1d3e
000002d0: 05a3 bcbd 4ce0 82be 6e80 fe3b d343 da3c
000002e0: 4ca0 a7bd 4c50 393c 4614 e53c 2029 d8bd
000002f0: 9087 0cbb 36b9 f33d 6b0f 603e ae54 d9bb
00000300: de91 7e3e 5a90 f2bb e4f7 dd3d 089f 5e3c
00000310: 06b0 95be f3cc c6bc 68c4 213d 4cf6 42be
00000320: 744b 35be 5557 3f3e 72d1 9cbc 7aa4 30be
00000330: 8ad6 93bc b500 e3be 2613 00be 25a5 37be
00000340: 2e5b 83be c17d 6b3d 2532 583b 3fc3 82be
00000350: 2f49 db3d cad6 87be de6b 94be 590a 093e
00000360: 4c44 2f3d 7ffb e2ba ee7f 41be d31d 353e
00000370: e7a5 573d 112f 98bd 0a9e 203e 7678 84be
00000380: f342 4dbd e14a d4bc 74a5 cdbd 6d1b ce3d
00000390: b01a 7dbe b562 a1bd e195 94bd 006c 0fbe
000003a0: 66ee 813d 11f6 503e c6a0 28bd b22d 58be
000003b0: fea7 2dbe a27d 05bc 960e 65be c2d8 c5bd
000003c0: 2581 ca3d 1b1d 68be 3afa 88bd d02c 87bc
000003d0: 4cf9 ec3d 537e 133e d317 9abe dfb3 89be
000003e0: 3084 afbc acb1 57be 56bf ee3b ede0 a5bd
000003f0: b2be 183e 68bf ee3c 3438 c03d 4285 453e

block_2.2.bias f4 [10]
0.043195207 -0.025562115 -0.14431982 -0.017648581 -0.11009796 -0.096615605 -0.076695465 0.07524222
0.02196068 0.031773586
00000000: 75ed 303d a467 d1bc 93c8 13be c293 90bc
00000010: 0a7b e1bd 67de c5bd 8312 9dbd 9818 9a3d
00000020: e2e6 b33c 0525 023d

layer_1.1.weight f4 [10, 490]
-0.03419934 -0.0126723405 -0.0064106933 -0.03971285 -0.0003291189 -0.033242468 0.04539983 -0.069397695
-0.07019677 -0.19042864 0.012206668 -0.079466216 -0.021726146 0.018057194 -0.05806345 -0.09563887
-0.24262099 -0.06386526 0.14594026 0.09994079 0.018521303 -0.011047398 -0.17365317 -0.2788922
-0.00033476707 0.40975034 0.34910184 -0.028871015 0.097407274 0.003112269 -0.061506327 -0.21526912
0.3373992 0.1558987 -0.03853337 0.051859997 0.08051863 0.33540928 -0.1520111 -0.09515974
-0.014692976 -0.011150648 0.06476117 0.23626958 0.27109614 -0.13011803 -0.2917784 -0.031606693
-0.018119592 0.0053105024 -0.051979937 -0.098148406 -0.053701762 -0.12187001 0.03661453 0.018930638
-0.03954996 -0.11369595 0.077308245 -0.05532019 0.030117514 0.004394895 -0.020796927 0.0029572719
0.08563962 -0.076570965 -0.09634765 -0.2571886 -0.0882212 -0.028164763 0.024141585 0.25291395
0.2350897 -0.29374912 0.1264085 0.19964242 -0.06681232 -0.008171587 0.1696047 0.14033307
-0.08042608 0.14446945 -0.010520379 -0.038216744 0.04411441 0.024274861 -0.078909665 -0.12044427
-0.13534093 -0.010808782 -0.02602446 0.017542278 -0.04069655 -0.038891815 -0.07683985 -0.0061114235
-0.0428294 0.027633512 0.022865057 -0.03295668 0.02200621 0.029957728 -0.04864477 -0.02399977
-0.006893374 -0.006683046 0.03177002 -0.06573135 -0.15697402 -0.14261499 -0.15997842 -0.030829635
-0.052412335 -0.0097277425 -0.080605954 0.014461838 -0.011230062 -0.05438511 -0.039841447 -0.032787025
-0.025858708 0.053274028 0.3193361 0.12665448 0.19990568 0.09118833 -0.041537337 0.0200695
0.051668387 0.35479 0.065412454 -0.0201837 0.020879399 -0.040008325 0.024204988 -0.036007535
-0.16561198 -0.188808 -0.21984005 -0.0997964 -0.02244155 -0.04274749 -0.012512375 -0.11179231
-0.18159512 -0.104962155 -0.027869198 0.014147056 -0.02446309 0.00416917 -0.03854878 0.03993157
-0.014473615 -0.038792033 0.0022927502 -0.050162163 -0.07156284 -0.03577482 0.00702056 -0.005315268
-0.05046006 -0.010569065 -0.031180024 -0.02327203 0.05918428 0.09440668 0.074139096 -0.008275607
0.019863885 0.019044137 0.008575236 -0.02207063 -0.017717535 0.14138062 0.09754323 0.025841955
0.092892736 -0.023366524 -0.19124912 -0.08609275 0.032541253 0.0045107924 0.0015842516 0.12121089
0.11521197 0.01484919 0.0037126173 0.07873876 0.039524067 -0.03879836 0.07564057 0.0647273
0.03348027 0.03287992 -0.0377922 -0.0040821703 0.032809358 0.050473735 0.02542369 0.052563217
0.034815952 0.02460899 0.053952496 0.011085977 0.07082291 0.032549232 -0.023305742 -0.06056083
-0.022806888 0.063908376 0.04577272 0.08631111 -0.014156478 -0.037456505 -0.039322235 -0.12756501
-0.06640211 0.028644418 -0.010444355 -0.06700211 0.15590355 0.13548659 -0.14407155 -0.065461785
-0.04353242 -0.17505644 -0.12293557 0.12187955 0.010019748 -0.14942554 -0.00023218535 -0.027824929
-0.11311746 -0.14284573 -0.013536667 -0.047830638 -0.02458571 0.0057325508 0.037575506 0.038450114
-0.017869057 0.012121631 0.015421795 0.064391784 0.063280776 -0.025485938 -0.00068814703 -0.07544939
0.014491718 -0.023071805 0.02013867 -0.018177675 -0.027164081 0.15495488 -0.026177764 0.059127923
00000000: 9b14 0cbd a69f 4fbc cb10 d2bb f1a9 22bd
00000010: 978d acb9 4129 08bd 2cf5 393d 6120 8ebd
00000020: 53c3 8fbd baff 42be 7afe 473c 2fbf a2bd
00000030: 08fb b1bc aeec 933c f1d3 6dbd 50de c3bd
00000040: a371 78be cacb 82bd 5d71 153e c2ad cc3d
00000050: fdb9 973c 2500 35bc 23d2 31be f5ca 8ebe
00000060: ad83 afb9 ccca d13e 7abd b23e e882 ecbc
00000070: 777d c73d 36f7 4b3b 0fee 7bbd 826f 5cbe
00000080: 97bf ac3e e9a3 1f3e 2bd5 1dbd 266b 543d
00000090: f4e6 a43d c4ba ab3e cca8 1bbe 1ce3 c2bd
000000a0: cfba 70bc 35b1 36bc 81a1 843d a7f0 713e
000000b0: 1dcd 8a3e a93d 05be fa63 95be 0576 01bd
000000c0: 8a6f 94bc b903 ae3b eae8 54bd 0802 c9bd
000000d0: 61f6 5bbd fc96 f9bd 1ef9 153d 6d14 9b3c
000000e0: 24ff 21bd 6cd9 e8bd c953 9e3d 6c97 62bd
000000f0: 01b9 f63c 0d03 903b 515e aabc cace 413b
00000100: d363 af3d 3dd1 9cbd eb51 c5bd 39ae 83be
00000110: 51ad b4bd cab9 e6bc 93c4 c53c f07d 813e
00000120: 5bbb 703e 4966 96be 3b71 013e 106f 4c3e
00000130: e6d4 88bd 1fe2 05bc dbac 2d3e 79b3 0f3e
00000140: 6eb6 a4bd cdef 133e ab5d 2cbc 2989 1cbd
00000150: 50b1 343d 13dc c63c 649b a1bd 7cab f6bd
00000160: d096 0abe 5117 31bc 4031 d5bc d3b4 8f3c
00000170: 6db1 26bd 064d 1fbd 365e 9dbd 5642 c8bb
00000180: e26d 2fbd ad5f e23c 804f bb3c 95fd 06bd
00000190: 5e46 b43c e969 f53c bd3f 47bd 2a9b c4bc
000001a0: d0e1 e1bb 74fd dabb 4821 023d 289e 86bd
000001b0: ccbd 20be aa09 12be 62d1 23be 6e8e fcbc
000001c0: 51ae 56bd 1c61 1fbc bc14 a5bd 58f1 6c3c
000001d0: 4bfe 37bc ecc2 5ebd c930 23bd b04b 06bd
000001e0: a4d5 d3bc de35 5a3d 0580 a33e b6b1 013e
000001f0: 13b4 4c3e f2c0 ba3d 0e23 2abd cb68 a43c
00000200: 3ba2 533d 09a7 b53e f7f6 853d 4958 a5bc
00000210: 460b ab3c c5df 23bd 8a49 c63c a37c 13bd
00000220: 3096 29be e256 41be c01d 61be 0e62 ccbd
00000230: 57d7 b7bc fe17 2fbd b400 4dbc 5ef3 e4bd
00000240: 12f4 39be 66f6 d6bd f24d e4bc 0ec9 673c
00000250: d166 c8bc 889d 883b 53e5 1dbd 498f 233d
00000260: be22 6dbc 65e4 1ebd f741 163b d776 4dbd
00000270: 8a8f 92bd 9e88 12bd ba0c e63b b32b aebb
00000280: 35af 4ebd df29 2dbc 406d ffbc fca4 bebc
00000290: 376b 723d 4a58 c13d 3dd6 973d 6996 07bc
000002a0: 96b9 a23c 7302 9c3c 267f 0c3c 77cd b4bc
000002b0: 5d24 91bc 15c6 103e bfc4 c73d 82b2 d33c
000002c0: 8c3e be3d 276b bfbc cfd6 43be 6551 b0bd
000002d0: fa49 053d 45cf 933b aaa6 cf3a 6a3d f83d
000002e0: 41f4 eb3d 044a 733c 624f 733b c941 a13d
000002f0: fde3 213d 07eb 1ebd 71e9 9a3d bf8f 843d
00000300: 9c22 093d 18ad 063d fecb 1abd bac3 85bb
00000310: 1b63 063d 8cbd 4e3d 5845 d03c 874c 573d
00000320: 2c9b 0e3d cb98 c93c 4bfd 5c3d f5a1 353c
00000330: 9a0b 913d 5852 053d afeb bebc a20e 78bd
00000340: 83d5 babc 65e2 823d 2d7c 3b3d e1c3 b03d
00000350: 93f0 67bc fe6b 19bd 5a10 21bd 67a0 02be
00000360: d4fd 87bd b3a7 ea3c cd1e 2bbc 6738 89bd
00000370: 2ea5 1f3e ffbc 0a3e 7e87 13be d410 86bd
00000380: 0d4f 32bd ff41 33be a5c5 fbbd fc9b f93d
00000390: de29 243c 0203 19be c876 73b9 1bf1 e3bc
000003a0: 20aa e7bd 2746 12be e6c8 5dbc 0fea 43bd
000003b0: f967 c9bc 1fd8 bb3b c6e8 193d de7d 1d3d
000003c0: 2162 92bc ce99 463c b2ab 7c3c d7df 833d
000003d0: 5a99 813d e3c7 d0bc c464 34ba 3685 9abd
000003e0: ac6e 6d3c 1501 bdbc daf9 a43c 59e9 94bc
000003f0: 3587 debc 7eac 1e3e c072 d6bc 1f30 723d

layer_1.1.bias f4 [10]
0.012343637 0.22160016 0.06796333 -0.06506578 -0.031655814 -0.08979503 -0.0576153 0.13440473
0.043432865 -0.11097132
00000000: f73c 4a3c 27eb 623e 5c30 8b3d 3541 85bd
00000010: 87a9 01bd 75e6 b7bd 05fe 6bbd 65a1 093e
00000020: a9e6 313d ee44 e3bd
